Model: "model"
__________________________________________________________________________________________________
Layer (type)                    Output Shape         Param #     Connected to                     
==================================================================================================
input_1 (InputLayer)            [(None, 224, 224, 3) 0                                            
__________________________________________________________________________________________________
cropping2d (Cropping2D)         (None, 32, 32, 3)    0           input_1[0][0]                    
__________________________________________________________________________________________________
cropping2d_1 (Cropping2D)       (None, 32, 32, 3)    0           input_1[0][0]                    
__________________________________________________________________________________________________
cropping2d_2 (Cropping2D)       (None, 32, 32, 3)    0           input_1[0][0]                    
__________________________________________________________________________________________________
cropping2d_3 (Cropping2D)       (None, 32, 32, 3)    0           input_1[0][0]                    
__________________________________________________________________________________________________
cropping2d_4 (Cropping2D)       (None, 32, 32, 3)    0           input_1[0][0]                    
__________________________________________________________________________________________________
cropping2d_5 (Cropping2D)       (None, 32, 32, 3)    0           input_1[0][0]                    
__________________________________________________________________________________________________
cropping2d_6 (Cropping2D)       (None, 32, 32, 3)    0           input_1[0][0]                    
__________________________________________________________________________________________________
cropping2d_7 (Cropping2D)       (None, 32, 32, 3)    0           input_1[0][0]                    
__________________________________________________________________________________________________
cropping2d_8 (Cropping2D)       (None, 32, 32, 3)    0           input_1[0][0]                    
__________________________________________________________________________________________________
cropping2d_9 (Cropping2D)       (None, 32, 32, 3)    0           input_1[0][0]                    
__________________________________________________________________________________________________
cropping2d_10 (Cropping2D)      (None, 32, 32, 3)    0           input_1[0][0]                    
__________________________________________________________________________________________________
cropping2d_11 (Cropping2D)      (None, 32, 32, 3)    0           input_1[0][0]                    
__________________________________________________________________________________________________
cropping2d_12 (Cropping2D)      (None, 32, 32, 3)    0           input_1[0][0]                    
__________________________________________________________________________________________________
cropping2d_13 (Cropping2D)      (None, 32, 32, 3)    0           input_1[0][0]                    
__________________________________________________________________________________________________
cropping2d_14 (Cropping2D)      (None, 32, 32, 3)    0           input_1[0][0]                    
__________________________________________________________________________________________________
cropping2d_15 (Cropping2D)      (None, 32, 32, 3)    0           input_1[0][0]                    
__________________________________________________________________________________________________
cropping2d_16 (Cropping2D)      (None, 32, 32, 3)    0           input_1[0][0]                    
__________________________________________________________________________________________________
cropping2d_17 (Cropping2D)      (None, 32, 32, 3)    0           input_1[0][0]                    
__________________________________________________________________________________________________
cropping2d_18 (Cropping2D)      (None, 32, 32, 3)    0           input_1[0][0]                    
__________________________________________________________________________________________________
cropping2d_19 (Cropping2D)      (None, 32, 32, 3)    0           input_1[0][0]                    
__________________________________________________________________________________________________
cropping2d_20 (Cropping2D)      (None, 32, 32, 3)    0           input_1[0][0]                    
__________________________________________________________________________________________________
cropping2d_21 (Cropping2D)      (None, 32, 32, 3)    0           input_1[0][0]                    
__________________________________________________________________________________________________
cropping2d_22 (Cropping2D)      (None, 32, 32, 3)    0           input_1[0][0]                    
__________________________________________________________________________________________________
cropping2d_23 (Cropping2D)      (None, 32, 32, 3)    0           input_1[0][0]                    
__________________________________________________________________________________________________
cropping2d_24 (Cropping2D)      (None, 32, 32, 3)    0           input_1[0][0]                    
__________________________________________________________________________________________________
cropping2d_25 (Cropping2D)      (None, 32, 32, 3)    0           input_1[0][0]                    
__________________________________________________________________________________________________
cropping2d_26 (Cropping2D)      (None, 32, 32, 3)    0           input_1[0][0]                    
__________________________________________________________________________________________________
cropping2d_27 (Cropping2D)      (None, 32, 32, 3)    0           input_1[0][0]                    
__________________________________________________________________________________________________
cropping2d_28 (Cropping2D)      (None, 32, 32, 3)    0           input_1[0][0]                    
__________________________________________________________________________________________________
cropping2d_29 (Cropping2D)      (None, 32, 32, 3)    0           input_1[0][0]                    
__________________________________________________________________________________________________
cropping2d_30 (Cropping2D)      (None, 32, 32, 3)    0           input_1[0][0]                    
__________________________________________________________________________________________________
cropping2d_31 (Cropping2D)      (None, 32, 32, 3)    0           input_1[0][0]                    
__________________________________________________________________________________________________
cropping2d_32 (Cropping2D)      (None, 32, 32, 3)    0           input_1[0][0]                    
__________________________________________________________________________________________________
cropping2d_33 (Cropping2D)      (None, 32, 32, 3)    0           input_1[0][0]                    
__________________________________________________________________________________________________
cropping2d_34 (Cropping2D)      (None, 32, 32, 3)    0           input_1[0][0]                    
__________________________________________________________________________________________________
cropping2d_35 (Cropping2D)      (None, 32, 32, 3)    0           input_1[0][0]                    
__________________________________________________________________________________________________
cropping2d_36 (Cropping2D)      (None, 32, 32, 3)    0           input_1[0][0]                    
__________________________________________________________________________________________________
cropping2d_37 (Cropping2D)      (None, 32, 32, 3)    0           input_1[0][0]                    
__________________________________________________________________________________________________
cropping2d_38 (Cropping2D)      (None, 32, 32, 3)    0           input_1[0][0]                    
__________________________________________________________________________________________________
cropping2d_39 (Cropping2D)      (None, 32, 32, 3)    0           input_1[0][0]                    
__________________________________________________________________________________________________
cropping2d_40 (Cropping2D)      (None, 32, 32, 3)    0           input_1[0][0]                    
__________________________________________________________________________________________________
cropping2d_41 (Cropping2D)      (None, 32, 32, 3)    0           input_1[0][0]                    
__________________________________________________________________________________________________
cropping2d_42 (Cropping2D)      (None, 32, 32, 3)    0           input_1[0][0]                    
__________________________________________________________________________________________________
cropping2d_43 (Cropping2D)      (None, 32, 32, 3)    0           input_1[0][0]                    
__________________________________________________________________________________________________
cropping2d_44 (Cropping2D)      (None, 32, 32, 3)    0           input_1[0][0]                    
__________________________________________________________________________________________________
cropping2d_45 (Cropping2D)      (None, 32, 32, 3)    0           input_1[0][0]                    
__________________________________________________________________________________________________
cropping2d_46 (Cropping2D)      (None, 32, 32, 3)    0           input_1[0][0]                    
__________________________________________________________________________________________________
cropping2d_47 (Cropping2D)      (None, 32, 32, 3)    0           input_1[0][0]                    
__________________________________________________________________________________________________
cropping2d_48 (Cropping2D)      (None, 32, 32, 3)    0           input_1[0][0]                    
__________________________________________________________________________________________________
zero_padding2d (ZeroPadding2D)  (None, 34, 34, 3)    0           cropping2d[0][0]                 
                                                                 cropping2d_1[0][0]               
                                                                 cropping2d_2[0][0]               
                                                                 cropping2d_3[0][0]               
                                                                 cropping2d_4[0][0]               
…
